week06/model.tflite (tflite, 222104 bytes, 6 tensors)

mnist_model/dense_28/BiasAdd/ReadVariableOp f4 [10]
-0.037117053 0.062389147 -0.05069763 -0.025751086 0.04187143 0.016041316 -0.051890172 0.0030345642
-0.020320717 0.03410343
00000000: 0d08 18bd c38b 7f3d 51a8 4fbd f1f3 d2bc
00000010: 6081 2b3d 1469 833c ca8a 54bd 8adf 463b
00000020: a277 a6bc 0ab0 0b3d

mnist_model/dense_27/BiasAdd/ReadVariableOp f4 [64]
0.027759494 0.010118928 0.032255687 -0.004324826 0.029566636 0.015574216 0.010073372 0.046805475
-0.043120425 0.009543802 0.016558737 0.04440093 0.013748213 0.034023073 0.043217767 0.10106527
0.006667665 0.012413014 -0.013789645 0.03720541 0.08895708 0.021548674 0.00013320148 0.02023758
0.056017235 0.066570364 -0.020818876 -0.016477656 0.0013185956 -0.032068904 0.018578345 -0.020145077
0.05108061 0.06745896 0.0030169415 -0.047929484 -0.00094469334 -0.02591311 0.021355791 0.03549158
-0.010643198 0.080319 0.06479745 0.030487811 0.018743632 -0.0024441897 0.05870152 0.045999967
0.054351594 0.026697457 0.08448814 0.097930424 0.04429544 0.028764773 0.029811889 -0.049858823
0.040333327 0.037607126 0.046808224 0.0558765 0.026164195 0.030169267 0.010728777 0.0014488166
00000000: e167 e33c dcc9 253c 8a1e 043d 45b7 8dbb
00000010: bb35 f23c ff2a 7f3c c90a 253c 19b7 3f3d
00000020: 0b9f 30bd 9b5d 1c3c 30a6 873c c0dd 353d
00000030: 2f40 613c c75b 0b3d 1d05 313d 4ffb ce3d
00000040: 6e7c da3b f45f 4b3c f7ed 61bc b364 183d
00000050: 212f b63d d886 b03c 00ac 0b39 48c9 a53c
00000060: 5472 653d 0b56 883d 598c aabc 26fc 86bc
00000070: bad4 ac3a af5a 03bd 9d31 983c 4a07 a5bc
00000080: e739 513d ec27 8a3d e1b7 453b b551 44bd
00000090: 4ca5 77ba bb47 d4bc 57f2 ae3c 9e5f 113d
000000a0: cf60 2ebc 4a7e a43d 87b4 843d 93c1 f93c
000000b0: 3f8c 993c b32e 20bb 0171 703d 766a 3c3d
000000c0: c79f 5e3d a0b4 da3c 1e08 ad3d bf8f c83d
000000d0: 236f 353d 1aa4 eb3c 1038 f43c c438 4cbd
000000e0: 8f34 253d ee09 1a3d fbb9 3f3d c2de 643d
000000f0: 4b56 d63c 8a25 f73c c1c7 2f3c 38e6 bd3a

mnist_model/dense_26/BiasAdd/ReadVariableOp f4 [64]
0.07235958 0.063256994 0.022919895 0.008748955 0.027091244 0.05442831 0.05466717 -0.011360434
-0.019836238 -0.030806487 0.04869465 0.068530545 -0.02210855 -0.0044780276 0.03868662 0.08055824
0.04923774 -0.016421905 0.022958267 0.027946122 0.025329795 0.04192921 0.015552832 0.028599083
0.009398209 0.019708391 0.03052266 0.03577367 -0.051724672 -0.010692108 -0.025893465 0.085106984
0.072156474 -0.027732603 0.027257223 -0.019218259 0.023939287 -0.0029496343 0.024153039 0.00064056204
0.013990498 0.06688117 0.018548472 0.06795085 0.08240256 -0.0057659782 0.0039016083 0.06670511
0.06530893 0.048876554 0.073847495 0.01134195 -0.0377668 0.03661291 0.045487247 0.0034902887
-0.014555463 0.0013325996 -0.032928683 0.018515274 0.0044808844 -0.000693874 0.08454057 0.054510403
00000000: 4231 943d e28c 813d 81c2 bb3c c757 0f3c
00000010: 75ee dd3c 38f0 5e3d afea 5f3d 1d21 3abc
00000020: 9b7f a2bc e35d fcbc 0b74 473d be59 8c3d
00000030: fd1c b5bc 6bbc 92bb dc75 1e3d b8fb a43d
00000040: 83ad 493d 3b87 86bc fa12 bc3c 44ef e43c
00000050: 6e80 cf3c f7bd 2b3d 4ed1 7e3c a048 ea3c
00000060: f2fa 193c 7e73 a13c a80a fa3c 6987 123d
00000070: 40dd 53bd f42d 2fbc 881e d4bc 924c ae3d
00000080: c6c6 933d 7c2f e3bc 8a4a df3c 9c6f 9dbc
00000090: 531c c43c a74e 41bb 98dc c53c 64eb 273a
000000a0: 6738 653c fff8 883d f7f2 973c d129 8b3d
000000b0: acc2 a83d 88f0 bcbb 20b2 7f3b b09c 883d
000000c0: b0c0 853d c832 483d 5b3d 973d 96d3 393c
000000d0: 5cb1 1abd 6bf7 153d d650 3a3d 54bd 643b
000000e0: 097a 6ebc 9faa ae3a 3ae0 06bd 58ad 973c
000000f0: 62d4 923b 19e5 35ba 9b23 ad3d 4d46 5f3d

mnist_model/dense_26/MatMul f4 [64, 784]
-0.019095495 0.08408909 -0.02865719 -0.031312983 0.022876665 -0.061977983 0.030378215 -0.049487885
0.048924528 -0.07362417 -0.0820758 -0.053426787 -0.0073061497 -0.06621057 0.051746264 0.0716856
0.08266715 -0.073286325 0.028241895 0.038272336 0.0008262396 0.01992745 -0.047447372 0.0840031
-0.025361389 -0.0451139 0.07959264 -0.061119474 -0.054024436 -0.03204787 -0.06137096 0.040856212
0.00078429107 -0.061097667 -0.003319027 -0.077795245 -0.061817925 0.05385236 -0.08757823 -0.10064681
0.041392196 -0.051021114 0.043125 -0.09548322 -0.10524198 0.03812334 0.019986747 -0.06687454
0.025217548 0.07695589 -0.08765054 -0.040632516 -0.02134835 0.05126334 -0.039715014 -0.07759361
0.07715612 -0.034844693 -0.079810545 -0.041715786 -0.0019596505 -0.07769329 0.019659286 -0.049998205
-0.043464538 -0.0474643 -0.04166439 -0.01830185 -0.07619406 -0.00084081595 0.044816554 -0.038589552
-0.109106764 0.009100122 -0.1243258 -0.049507473 -0.085609905 -0.11636536 -0.09428211 0.05363697
-0.02247433 0.0055396045 -0.04547593 0.04970733 -0.06575542 -0.012584008 -0.03258423 -0.079288416
0.027819969 -0.07117409 -0.076868676 0.0037100832 -0.12034369 -0.14763722 -0.106900945 -0.09212154
-0.052331258 0.0022564637 -0.07940487 -0.039644808 -0.09216541 -0.1810515 -0.038975872 -0.049322266
-0.038241167 -0.08915283 0.06400005 -0.09088607 0.0038635065 0.015315047 -0.002576313 0.07044535
0.00011535734 -0.04115053 -0.058766425 -0.0024017042 0.05090114 -0.028257139 -0.10934067 -0.044049542
-0.040837497 0.03259158 -0.06409787 0.0336926 -0.025104892 0.032613914 -0.046206277 0.011237454
-0.0042225136 -0.11025805 -0.0827952 0.024255764 0.07760433 0.10500586 0.09345178 -0.010265409
-0.0061907456 0.012984536 -0.07815186 -0.03706936 -0.029471979 -0.02529262 -0.043452844 -0.00068388454
0.016782366 0.030673636 -0.054002598 0.041092888 0.017362034 0.10672268 -0.030022318 0.0022378368
0.056935955 0.09204136 0.10603036 -0.041034468 0.041904997 -0.007360456 -0.04660797 0.04554999
0.028771868 0.03344082 0.07290715 0.17190899 0.0106927715 0.05208274 -0.066595994 -0.0043709036
-0.071260415 -0.019447546 0.03195708 -0.06195681 0.019711552 0.020609144 0.004465801 0.037948444
0.03735281 -0.033872187 0.0314487 -0.0037907846 0.08477781 -0.03191095 -0.05892362 0.0045357384
-0.08650181 -0.097456455 0.016338214 -0.013381285 0.006283975 0.05795229 0.07310917 0.11920318
0.11031247 0.07934279 0.06719875 0.07304317 -0.0042742956 0.0049936054 -0.0042098495 -0.02241692
-0.05730183 -0.033292733 -0.06557181 0.006097226 0.00062062533 -0.0040045297 0.098715246 -0.082707606
-0.09955703 -0.098794624 -0.07637957 -0.051820677 -0.05154375 -0.106801085 0.023307437 0.01584373
0.023317264 0.09647281 0.036680665 0.14090231 0.165324 0.037564762 0.107202426 -0.073970154
0.012873764 -0.037398677 -0.06343737 -0.005480434 0.09103418 0.0068915347 0.10398996 0.12061634
0.10412731 0.05495101 -0.04516203 -0.038594488 0.067961454 -0.010495816 -0.089212194 -0.14043826
-0.10961912 0.04113398 -0.004376903 0.056701567 0.029289426 0.04032337 0.059155803 -0.016598556
-0.009625255 0.12601358 0.085597865 0.050239295 -0.009164236 0.023617519 0.060666997 -0.050718978
00000000: 286e 9cbc e736 ac3d 7cc2 eabc 0b42 00bd
00000010: d867 bb3c a0dc 7dbd bcdb f83c cfb3 4abd
00000020: 1665 483d 45c8 96bd 5b17 a8bd 0cd6 5abd
00000030: 6d68 efbb 6899 87bd e4f3 533d e6cf 923d
00000040: 654d a93d 2417 96bd 8c5b e73c 74c3 1c3d
00000050: 0098 583a e43e a33c 2d58 42bd d109 ac3d
00000060: b0c2 cfbc 5ac9 38bd 7701 a33d 6a58 7abd
00000070: ba48 5dbd a144 03bd 1e60 7bbd d858 273d
00000080: e298 4d3a 8c41 7abd 0884 59bb 1d53 9fbd
00000090: cb34 7dbd 4b94 5c3d 375c b3bd ea1f cebd
000000a0: dd8a 293d 84fb 50bd d7a3 303d b58c c3bd
000000b0: 1b89 d7bd 3827 1c3d 3fbb a33c 85f5 88bd
000000c0: 0895 ce3c 0d9b 9d3d 2082 b3bd 486e 26bd
000000d0: bce2 aebc 82f9 513d 36ac 22bd 66e9 9ebd
000000e0: 0704 9e3d 4fb9 0ebd b673 a3bd 2cde 2abd
000000f0: 7b6d 00bb a91d 9fbd 830c a13c ebca 4cbd
00000100: df07 32bd ed69 42bd 48a8 2abd c3ed 95bc
00000110: a20b 9cbd 346a 5cba 9091 373d 1410 1ebd
00000120: 5e73 dfbd ae18 153c 869e febd 59c8 4abd
00000130: 3f54 afbd f650 eebd fb16 c1bd 71b2 5b3d
00000140: 161c b8bc 9285 b53b f844 3abd ea99 4b3d
00000150: c7aa 86bd 282d 4ebc 0b77 05bd f761 a2bd
00000160: b4e6 e33c b9c3 91bd 536d 9dbd de24 733b
00000170: c176 f6bd 362e 17be e2ee dabd 38aa bcbd
00000180: 4d59 56bd 2ee1 133b 059f a2bd 9862 22bd
00000190: 38c1 bcbd 9065 39be 2aa5 1fbd 2506 4abd
000001a0: c5a2 1cbd c295 b6bd 7512 833d 7a22 babd
000001b0: e232 7d3b f7eb 7a3c 5cd7 28bb a745 903d
000001c0: 00ec f138 758d 28bd 10b5 70bd e965 1dbb
000001d0: b77d 503d 847b e7bc 00ee dfbd 4b6d 34bd
000001e0: 3845 27bd c07e 053d be45 83bd 4001 0a3d
000001f0: c6a8 cdbc 2b96 053d cb42 3dbd 4c1d 383c
00000200: 035d 8abb f9ce e1bd 8890 a9bd 06b4 c63c
00000210: 05ef 9e3d 500d d73d a663 bf3d 3f30 28bc
00000220: bddb cabb 17bd 543c 150e a0bd 0bd6 17bd
00000230: 386f f1bc 7832 cfbc 9cfb 31bd b746 33ba
00000240: 2c7b 893c 4747 fb3c d431 5dbd 0451 283d
00000250: d33a 8e3c 6c91 da3d 5df1 f5bc aca8 123b
00000260: ad35 693d 2e80 bc3d 7226 d93d c213 28bd
00000270: 93a4 2b3d fb2f f1bb 00e8 3ebd a092 3a3d
00000280: fbb2 eb3c 3ef9 083d 5850 953d e908 303e
00000290: bc30 2f3c b654 553d 7b63 88bd cc39 8fbb
000002a0: fbf0 91bd 7650 9fbc 6de5 023d 6dc6 7dbd
000002b0: 1f7a a13c 82d4 a83c db55 923b d46f 1b3d
000002c0: 43ff 183d 90bd 0abd 5ad0 003d d06e 78bb
000002d0: fd9f ad3d 0eb5 02bd e559 71bd 88a0 943b
000002e0: dc27 b1bd 4097 c7bd b8d7 853c 2d3d 5bbc
000002f0: cee9 cd3b 615f 6d3d 43ba 953d cc20 f43d
00000300: 81eb e13d 797e a23d 809f 893d a897 953d
00000310: 640f 8cbb 66a1 a33b c7f2 89bb b0a3 b7bc
00000320: 53b5 6abd f65d 08bd 834a 86bd 3dcb c73b
00000330: 76b1 223a 6e38 83bb 382b ca3d 9b62 a9bd
00000340: 8ee4 cbbd d654 cabd e46c 9cbd eb41 54bd
00000350: 8a1f 53bd 87ba dabd 3def be3c b6ca 813c
00000360: d903 bf3c 8993 c53d 773e 163d b248 103e
00000370: b24a 293e 82dd 193d f28c db3d aa7d 97bd
00000380: 7bec 523c 5b2f 19bd 74eb 81bd 3695 b3bb
00000390: 2170 ba3d 62d2 e13b b0f8 d43d b305 f73d
000003a0: b340 d53d 4f14 613d d2fb 38bd 4115 1ebd
000003b0: 602f 8b3d a5f6 2bbc e2b4 b6bd 0ccf 0fbe
000003c0: fd7f e0bd 1b7c 283d 206c 8fbb e73f 683d
000003d0: 61f0 ef3c 1e2a 253d 5b4d 723d b2f9 87bc
000003e0: 3fb3 1dbc b409 013e ef4d af3d b8c7 4d3d
000003f0: 9725 16bc 8779 c13c f57d 783d b4be 4fbd

mnist_model/dense_27/MatMul f4 [64, 64]
0.0062572546 0.00696825 -0.15327854 -0.24458048 0.32652214 0.25915775 0.14868583 0.07694152
-0.03505641 -0.2130474 -0.16565275 0.1972832 0.2139537 -0.2700934 0.01652905 0.19711281
-0.13887826 -0.005578275 0.252704 0.091542296 0.11557709 0.17899583 -0.1590657 0.21146144
-0.2066312 -0.1772826 0.08368131 0.0491706 0.16295822 0.09046948 0.14866868 0.1742658
0.075493015 0.015140672 0.22152573 -0.12026677 0.024403233 -0.042335514 0.0049870107 0.035374384
-0.061290808 0.08275792 0.06296981 0.02504809 -0.16756591 -0.27568263 -0.12732781 0.12826037
-0.10017952 0.16317834 -0.22302315 0.0021976319 -0.20128569 0.0775114 -0.39062768 -0.03374558
-0.09670329 0.03323529 -0.18944272 0.024693122 0.11512808 0.15315622 0.016489383 0.04220923
-0.25228012 -0.13478327 -0.07108688 0.14252083 -0.20401852 0.16311201 -0.10594344 0.21855164
0.14057958 0.06798767 0.051307157 -0.20273474 -0.11826606 0.31293842 -0.14627875 -0.105769664
0.21481624 -0.17387599 0.2784869 0.17461649 0.14669485 -0.13788801 0.3133362 -0.00732416
0.050401296 -0.09377678 0.17920755 0.30057326 0.14674602 0.24503292 -0.117733024 0.06033275
-0.14018978 0.12420901 0.060091466 0.27297804 0.16228484 0.0526025 0.12855142 -0.14470756
0.08860661 0.061329897 0.12967822 0.07638361 -0.010467652 0.04610323 -0.048214667 -0.18811513
0.015680691 -0.079570964 0.08316269 -0.109003626 0.06753981 0.08703796 0.340804 -0.16656658
-0.12925623 -0.12483989 0.10979249 0.34213954 0.18459868 -0.17762966 -0.07281179 -0.017819438
0.16271676 0.15570797 -0.058730986 0.07905586 -0.1547419 0.0059334245 -0.1481487 -0.1824483
-0.15198132 0.24419154 -0.08268783 0.038184375 -0.14191493 -0.039119154 -0.043360833 0.047995284
0.037712544 -0.033307854 0.06443676 -0.11537185 0.1920296 -0.14528947 0.017612798 0.19189012
0.15778156 0.1593716 -0.16777273 -0.081921674 -0.095885485 0.18658108 -0.12242254 0.02209946
-0.13680847 0.026390482 0.16942596 -0.14060327 -0.05110227 -0.035280533 -0.09261216 0.19464341
-0.0039581326 -0.19995995 -0.16887225 -0.24722631 -0.017086066 -0.14116864 -0.106656805 0.08644395
-0.10224695 -0.15572745 -0.0060825916 -0.13503242 0.033689965 0.11973559 -0.220444 0.2465052
0.18846552 -0.09448049 0.078209005 -0.13334309 -0.17767666 -0.27018973 0.24458952 -0.15615
0.17307734 0.19798502 -0.00805002 0.05381952 0.08700986 0.050295703 0.0065874686 0.1887367
0.179403 0.13786775 -0.18330292 -0.3331383 0.06044421 -0.091215834 0.18724109 -0.27755693
-0.28263292 -0.13507806 -0.076330446 -0.22568397 0.017692264 -0.049486347 0.16406988 -0.12750177
-0.017510721 -0.18409197 0.20482124 0.30378538 0.10218829 -0.1659222 -0.06651586 -0.13518804
0.044766147 0.20131658 0.1840384 0.3016506 0.23516716 -0.17553094 0.06854943 0.12169429
0.24572417 -0.2992696 0.111937106 -0.097778015 0.21005492 0.009907958 -0.18962744 0.031841658
-0.22391434 0.048404194 -0.017073622 0.028877111 -0.12396096 -0.108313404 -0.191338 -0.008332621
-0.27909562 0.04429741 -0.04376216 -0.12386825 0.23851824 0.0076960456 0.1453067 0.124709256
00000000: a809 cd3b eb55 e43b 0df5 1cbe 4e73 7abe
00000010: e92d a73e 53b0 843e 1941 183e 8493 9d3d
00000020: 4f97 0fbd 1929 5abe e0a0 29be 9b04 4a3e
00000030: ae16 5b3e af49 8abe ee67 873c f1d7 493e
00000040: 1a36 0ebe f6c9 b6bb 6b62 813e 877a bb3d
00000050: aeb3 ec3d af4a 373e 1ee2 22be 5989 583e
00000060: 2197 53be 9289 35be 1b61 ab3d 1c67 493d
00000070: 85de 263e 1048 b93d 9a3c 183e bc72 323e
00000080: 159c 9a3d 9510 783c a4d7 623e 6d4e f6bd
00000090: 4ae9 c73c 0168 2dbd 146a a33b bbe4 103d
000000a0: 120c 7bbd fc7c a93d 51f6 803d a731 cd3c
000000b0: 6696 2bbe 4626 8dbe 3962 02be b056 033e
000000c0: ec2a cdbd 3918 273e 2e60 64be 2506 103b
000000d0: d61d 4ebe 4cbe 9e3d 5a00 c8be ce38 0abd
000000e0: 600c c6bd ba21 083d 46fd 41be 3b49 ca3c
000000f0: 45c8 eb3d fcd4 1c3e be14 873c 96e3 2c3d
00000100: dc2a 81be a004 0abe 0096 91bd fbf0 113e
00000110: 3bea 50be d606 273e e0f8 d8bd 00cc 5f3e
00000120: 18f4 0f3e 1f3d 8b3d 7427 523d b299 4fbe
00000130: 7a35 f2bd 7739 a03e 19ca 15be c49d d8bd
00000140: caf8 5b3e 8c0c 32be d695 8e3e aace 323e
00000150: 2d37 163e 8432 0dbe 9a6d a03e 82ff efbb
00000160: 9771 4e3d 0a0e c0bd 2f82 373e bde4 993e
00000170: 9744 163e e9e9 7a3e 031e f1bd 791f 773d
00000180: e98d 0fbe 4b61 fe3d 7822 763d c7c3 8b3e
00000190: ff2d 263e b875 573d fca2 033e 382e 14be
000001a0: 6277 b53d 0f35 7b3d 5eca 043e 036f 9c3d
000001b0: 8480 2bbc bed6 3c3d be7c 45bd 41a1 40be
000001c0: cb74 803c 1af6 a2bd 3351 aa3d 4b3d dfbd
000001d0: 5052 8a3d f540 b23d dd7d ae3e 6e90 2abe
000001e0: bf5b 04be 0eac ffbd e3da e03d ea2c af3e
000001f0: 7007 3d3e 8de4 35be 591e 95bd 12fa 91bc
00000200: 399f 263e e971 1f3e e78f 70bd 0ae8 a13d
00000210: a974 1ebe 2c6d c23b 4bb4 17be bad3 3abe
00000220: fea0 1bbe 590d 7a3e 3d58 a9bd 3867 1c3d
00000230: 2652 11be 683b 20bd 219b 31bd b496 443d
00000240: 7878 1a3d d16d 08bd 6cf7 833d 1448 ecbd
00000250: 68a3 443e c3c6 14be b748 903c d87e 443e
00000260: 7d91 213e 4f32 233e 9dcc 2bbe 8dc6 a7bd
00000270: 9c5f c4bd 1c0f 3f3e abb8 fabd ed09 b53c
00000280: 8517 0cbe da30 d83c 007e 2d3e 4efa 0fbe
00000290: 9d50 51bd 5282 10bd 72ab bdbd 9a50 473e
000002a0: 39b3 81bb 4dc2 4cbe d9ec 2cbe e528 7dbe
000002b0: 14f8 8bbc 838e 10be e26e dabd 8709 b13d
000002c0: d966 d1bd 0477 1fbe 7a50 c7bb f045 0abe
000002d0: 7dfe 093d ef37 f53d 12bc 61be dc6b 7c3e
000002e0: 1bfd 403e fd7e c1bd 0b2c a03d 178b 08be
000002f0: dff0 35be 4f56 8abe ad75 7a3e c9e5 1fbe
00000300: 303b 313e 96bc 4a3e 3be4 03bc db71 5c3d
00000310: 3a32 b23d de02 4e3d b1db d73b 3244 413e
00000320: 6cb5 373e 342d 0d3e c3b3 3bbe 1a91 aabe
00000330: 5994 773d 5ecf babd 21bc 3f3e f11b 8ebe
00000340: 43b5 90be e751 0abe 2353 9cbd b319 67be
00000350: 5eef 903c 32b2 4abd ef01 283e d38f 02be
00000360: a572 8fbc 9b82 3cbe a9bc 513e c289 9b3e
00000370: 1848 d13d 82e7 29be 7839 88bd bc6e 0abe
00000380: b55c 373d ef25 4e3e 9074 3c3e f371 9a3e
00000390: a9cf 703e 62be 33be a563 8c3d db3a f93d
000003a0: 1e9f 7b3e dd39 99be 483f e53d d73f c8bd
000003b0: a318 573e fd54 223c b22d 42be 666c 023d
000003c0: cd49 65be 7a43 463d fbdd 8bbc b18f ec3c
000003d0: 3edf fdbd 6bd3 ddbd 1cee 43be 8c85 08bc
000003e0: 9fe5 8ebe 3371 353d f33f 33bd a3ae fdbd
000003f0: 203e 743e 1c2f fc3b 48cb 143e 9167 ff3d

mnist_model/dense_28/MatMul f4 [10, 64]
0.27412996 0.19902085 0.026436685 -0.2532031 0.25551876 -0.30455866 -0.24508925 -0.14077917
0.1287935 -0.18770976 -0.13279662 -0.28737718 -0.29109332 -0.35183716 -0.054807413 0.12240945
0.1102361 -0.1982111 0.24008588 -0.27570936 -0.2571884 -0.24648763 0.05650383 0.25446072
0.23939484 0.049514372 -0.06053847 -0.0954196 0.27019724 -0.22055931 0.15604918 0.06591256
-0.017569836 0.3327269 0.18535736 -0.2996318 -0.15222545 -0.03684587 0.2452309 -0.37497386
0.23352501 -0.28699866 0.32530284 -0.25737032 0.21257444 -0.106810845 -0.3211376 0.19585547
-0.29091164 0.033517964 0.0023507758 -0.36236814 -0.25378907 -0.36382115 -0.13113537 0.2804631
-0.063248694 -0.35861278 -0.03379163 -0.30819133 -0.22052768 0.047395192 -0.11521075 -0.44222793
-0.44057447 0.2050727 -0.21428569 -0.06330232 -0.24968049 -0.43766227 -0.26314318 0.14364749
-0.13066567 -0.23975982 -0.3221389 -0.09606704 0.35441417 -0.009710007 0.019188657 -0.47480845
-0.110971816 -0.27133763 0.10846034 0.0569653 0.20877036 -0.042640198 -0.35915327 -0.056419354
0.15553676 0.40040976 -0.22597925 -0.14329942 0.006729723 0.015502165 0.13333191 -0.31746703
-0.21669677 -0.11025714 0.18507876 -0.12208954 -0.06928032 0.14663054 -0.043375112 0.2569624
0.10017169 0.2171694 -0.09693772 -0.09260523 -0.029456005 -0.4145896 -0.34126127 -0.32856402
0.3095314 0.14500989 -0.48737225 -0.5374608 -0.33588117 0.23479067 -0.46892342 -0.04017
-0.04740908 0.03253965 -0.37132338 0.27838925 -0.2038081 0.18455334 0.008904629 0.103512794
0.2571755 0.22852905 -0.26552045 0.17648491 -0.24199612 0.33394855 -0.25293255 -5.414855e-05
0.038149487 0.033033784 -0.062533826 0.27266246 0.19145665 -0.27538761 0.2036837 0.105444625
-0.16517767 0.07501947 0.3087723 -0.19173676 -0.12408695 0.1490564 0.24236527 -0.3038745
-0.0491853 -0.3097413 0.22143857 0.3117246 -0.008533697 -0.051556442 -0.16951147 0.17367469
-0.25867468 -0.25973737 -0.09666465 0.20208779 0.25871208 0.1740636 -0.22222838 0.3144377
-0.01867442 -0.23948649 -0.32458994 -0.23458752 -0.35042375 0.26851067 -0.08462272 -0.05456454
-0.36869144 0.2278033 -0.10134733 -0.082542695 0.3123363 0.20313922 -0.15232584 0.1568775
0.3922707 0.1248258 -0.051688366 -0.18295534 -0.037714105 -0.1563263 -0.063002884 0.05780389
-0.10341962 0.014573314 -0.15552902 -0.40935335 0.093312785 -0.18746959 -0.30991948 0.35871682
0.16610105 -0.14964758 0.29652697 0.089666866 -0.16066274 0.030467069 -0.39389887 -0.3957599
0.19883272 0.18785723 -0.30901667 -0.3824065 -0.15037715 0.08851444 0.32217264 -0.3002496
-0.24223232 -0.27309087 0.22758172 -0.0946997 -0.2322483 -0.18840957 -0.026403824 -0.038959697
-0.29305694 -0.25152755 -0.17529209 0.25731423 0.31553262 0.1725652 -0.4063503 0.1996436
-0.03763943 -0.021233609 -0.053649735 0.12677471 0.20191023 0.06289047 -0.17326877 -0.07586008
0.24519409 0.15076008 -0.10092063 -0.10927747 -0.19895092 0.093695566 -0.08408288 0.1773347
0.016339283 0.05786867 0.025026899 -0.20697905 0.0065583433 0.21033381 0.29387122 0.2061257
00000000: c35a 8c3e 1fcc 4b3e bf91 d83c d6a3 81be
00000010: 5bd3 823e 1def 9bbe adf8 7abe 6a28 10be
00000020: 71e2 033e fd36 40be d6fb 07be 1a23 93be
00000030: 2f0a 95be 0024 b4be bd7d 60bd ceb1 fa3d
00000040: 77c3 e13d daf7 4abe 13d9 753e c729 8dbe
00000050: 33ae 83be 4167 7cbe 8f70 673d ad48 823e
00000060: ec23 753e 95cf 4a3d 30f7 77bd 5a6b c3bd
00000070: 4b57 8a3e 4dda 61be 5bcb 1f3e 2afd 863d
00000080: 9eee 8fbc 2e5b aa3e 52ce 3d3e 5769 99be
00000090: fde0 1bbe b2eb 16bd cf1d 7b3e 93fc bfbe
000000a0: 2e21 6f3e 7df1 92be 188e a63e 0bc6 83be
000000b0: 1dad 593e a5bf dabd 266c a4be 568e 483e
000000c0: 5ff2 94be 224a 093d 790f 1a3b 5188 b9be
000000d0: a4f0 81be c446 babe 5a48 06be dc98 8f3e
000000e0: 8888 81bd 189c b7be 1869 0abd 41cb 9dbe
000000f0: 02d2 61be 7621 423d 9df3 ebbd b36b e2be
00000100: fa92 e1be 94fe 513e b56d 5bbe a6a4 81bd
00000110: 3eac 7fbe 4515 e0be b4ba 86be 5418 133e
00000120: 39cd 05be 9983 75be 64ef a4be ccbe c4bd
00000130: c675 b53e b916 1fbc 8831 9d3c 181a f3be
00000140: 3145 e3bd c4ec 8abe 7420 de3d 7254 693d
00000150: e6c7 553e 7da7 2ebd f0e2 b7be fb17 67bd
00000160: 0745 1f3e 8202 cd3e 1b67 67be 15bd 12be
00000170: 0285 dc3b cbfc 7d3c 2988 083e 0a8b a2be
00000180: c2e5 5dbe 7fce e1bd 4985 3d3e 150a fabd
00000190: d7e2 8dbd 5126 163e 1aaa 31bd 9390 833e
000001a0: d126 cd3d a861 5e3e 4987 c6bd d0a7 bdbd
000001b0: b84d f1bc 1745 d4be ccb9 aebe 8b39 a8be
000001c0: e67a 9e3e 797d 143e db88 f9be 0897 09bf
000001d0: 9ef8 abbe f76c 703e bb16 f0be 4c89 24bd
000001e0: 0630 42bd 4c48 053d 191e bebe 0989 8e3e
000001f0: 12b3 50be 8dfb 3c3e b9e4 113c 84fe d33d
00000200: 82ac 833e 8503 6a3e 4cf2 87be 76b8 343e
00000210: d5cd 77be 4efb aa3e 6080 81be 901d 63b8
00000220: a342 1c3d 6f4e 073d bc11 80bd 6a9a 8b3e
00000230: 360d 443e 9bff 8cbe 7692 503e 5af3 d73d
00000240: 5624 29be cfa3 993d 6717 9e3e a456 44be
00000250: 4d21 febd 3ea2 183e 9a2e 783e 7095 9bbe
00000260: 8676 49bd 6996 9ebe cbc0 623e 5e9a 9f3e
00000270: ebd0 0bbc d92c 53bd 6a94 2dbe c7d7 313e
00000280: 0271 84be 4cfc 84be 1ef8 c5bd 1af0 4e3e
00000290: e975 843e ba3d 323e d68f 63be fafd a03e
000002a0: 19fb 98bc f23b 75be a730 a6be b637 70be
000002b0: be6a b3be 3b7a 893e ad4e adbd 117f 5fbd
000002c0: 20c5 bcbe 4545 693e 308f cfbd 250c a9bd
000002d0: 8bea 9f3e ba03 503e 4efb 1bbe 7fa4 203e
000002e0: b5d7 c83e aba4 ff3d 2eb7 53bd a558 3bbe
000002f0: 1b7a 1abd 0014 20be a807 81bd c6c3 6c3d
00000300: aacd d3bd e9c4 6e3c 0043 1fbe c396 d1be
00000310: c61a bf3d 07f8 3fbe c4ad 9ebe bba9 b73e
00000320: 6516 2a3e 373d 19be 62d2 973e 43a3 b73d
00000330: c684 24be 1396 f93c 1dad c9be 0ba1 cabe
00000340: ce9a 4b3e a55d 403e 6f37 9ebe c9ca c3be
00000350: 78fc 19be 0f47 b53d d0f3 a43e 51ba 99be
00000360: c00b 78be 91d2 8bbe 2f0b 693e ebf1 c1bd
00000370: 80d2 6dbe 70ee 40be d54c d8bc 3494 1fbd
00000380: 8f0b 96be 38c8 80be c57f 33be b1be 833e
00000390: 7e8d a13e efb4 303e 260d d0be 5f6f 4c3e
000003a0: ce2b 1abd 1bf2 adbc d3bf 5bbd 3bd1 013e
000003b0: 8ec1 4e3e b8cc 803d 5e6d 31be 885c 9bbd
000003c0: 2914 7b3e da60 1a3e 7aaf cebd decc dfbd
000003d0: cab9 4bbe 76e3 bf3d a533 acbd 3a97 353e
000003e0: f6d9 853c b307 6d3d 3605 cd3c 51f2 53be
000003f0: 5fe7 d63b bf61 573e 4a76 963e 9e12 533e
